# Ultralytics YOLO 🚀, AGPL-3.0 license
# YOLOv9t object detection model. For Usage examples see https://docs.ultralytics.com/models/yolov9
# 917 layers, 2128720 parameters, 8.5 GFLOPs

# Parameters
nc: 80 # number of classes
ch: 4
# GELAN backbone
backbone:
  # visible  backbone
  - [ -1, 1, Silence, [ ] ]  # 0-P1/2
  - [ 0, 1, SilenceChannel, [ 0,3 ] ]  # 1-P1/2
  - [-1, 1, Conv, [16, 3, 2]] # 2-P1/2
  - [-1, 1, Conv, [32, 3, 2]] # 3-P2/4
  - [-1, 1, ELAN1, [32, 32, 16]] # 4
  - [-1, 1, AConv, [64]] # 5-P3/8
  - [-1, 1, RepNCSPELAN4, [64, 64, 32, 3]] # 6
  - [-1, 1, AConv, [96]] # 7-P4/16
  - [-1, 1, RepNCSPELAN4, [96, 96, 48, 3]] # 8
  - [-1, 1, AConv, [128]] # 9-P5/32
  - [-1, 1, RepNCSPELAN4, [128, 128, 64, 3]] # 10
  - [-1, 1, SPPELAN, [128, 64]] # 11

  # infrared  backbone
  - [ 0, 1, SilenceChannel, [ 3,4 ] ]  # 12-P1/2
  - [-1, 1, Conv, [16, 3, 2]] # 13-P1/2
  - [-1, 1, Conv, [32, 3, 2]] # 14-P2/4
  - [-1, 1, ELAN1, [32, 32, 16]] # 15
  - [-1, 1, AConv, [64]] # 16-P3/8
  - [-1, 1, RepNCSPELAN4, [64, 64, 32, 3]] # 17
  - [-1, 1, AConv, [96]] # 18-P4/16
  - [-1, 1, RepNCSPELAN4, [96, 96, 48, 3]] # 19
  - [-1, 1, AConv, [128]] # 20-P5/32
  - [-1, 1, RepNCSPELAN4, [128, 128, 64, 3]] # 21
  - [-1, 1, SPPELAN, [128, 64]] # 22

head:
    # visible  neck
  - [-1, 1, nn.Upsample, [None, 2, "nearest"]]
  - [[-1, 8], 1, Concat, [1]] # cat backbone P4
  - [-1, 1, RepNCSPELAN4, [96, 96, 48, 3]] # 25

  - [-1, 1, nn.Upsample, [None, 2, "nearest"]]
  - [[-1, 6], 1, Concat, [1]] # cat backbone P3
  - [-1, 1, RepNCSPELAN4, [64, 64, 32, 3]] # 28

  - [-1, 1, AConv, [48]]
  - [[-1, 25], 1, Concat, [1]] # cat head P4
  - [-1, 1, RepNCSPELAN4, [96, 96, 48, 3]] # 31 (P4/16-medium)

  - [-1, 1, AConv, [64]]
  - [[-1, 11], 1, Concat, [1]] # cat head P5
  - [-1, 1, RepNCSPELAN4, [128, 128, 64, 3]] # 34 (P5/32-large)

  # infrared  neck
  - [22, 1, nn.Upsample, [None, 2, "nearest"]]
  - [[-1, 19], 1, Concat, [1]] # cat backbone P4
  - [-1, 1, RepNCSPELAN4, [96, 96, 48, 3]] # 37

  - [-1, 1, nn.Upsample, [None, 2, "nearest"]]
  - [[-1, 17], 1, Concat, [1]] # cat backbone P3
  - [-1, 1, RepNCSPELAN4, [64, 64, 32, 3]] # 40

  - [-1, 1, AConv, [48]]
  - [[-1, 37], 1, Concat, [1]] # cat head P4
  - [-1, 1, RepNCSPELAN4, [96, 96, 48, 3]] # 43 (P4/16-medium)

  - [-1, 1, AConv, [64]]
  - [[-1, 22], 1, Concat, [1]] # cat head P5
  - [-1, 1, RepNCSPELAN4, [128, 128, 64, 3]] # 46 (P5/32-large)


  - [[28, 31, 34,40,43,46], 1, Detect, [nc]] # Detect(P3, P4 P5)
