# Ultralytics YOLO 🚀, AGPL-3.0 license
# YOLOv9s object detection model. For Usage examples see https://docs.ultralytics.com/models/yolov9
# 917 layers, 7318368 parameters, 27.6 GFLOPs

# Parameters
nc: 80 # number of classes

ch: 4
# GELAN backbone
backbone:
  - [ -1, 1, Silence, [ ] ]  # 0-P1/2
  - [ 0, 1, SilenceChannel, [ 0,3 ] ]  # 0-P1/2
  - [-1, 1, Conv, [32, 3, 2]] # 2-P1/2
  - [-1, 1, Conv, [64, 3, 2]] # 3-P2/4
  - [-1, 1, ELAN1, [64, 64, 32]] # 4
  - [-1, 1, AConv, [128]] # 5-P3/8
  - [-1, 1, RepNCSPELAN4, [128, 128, 64, 3]] # 6
  - [-1, 1, AConv, [192]] # 7-P4/16
  - [-1, 1, RepNCSPELAN4, [192, 192, 96, 3]] # 8
  - [-1, 1, AConv, [256]] # 9-P5/32
  - [-1, 1, RepNCSPELAN4, [256, 256, 128, 3]] # 10
  - [-1, 1, SPPELAN, [256, 128]] # 11

  - [ 0, 1, SilenceChannel, [ 3,4 ] ]  # 12-P1/2
  - [-1, 1, Conv, [32, 3, 2]] # 13-P1/2
  - [-1, 1, Conv, [64, 3, 2]] # 14-P2/4
  - [-1, 1, ELAN1, [64, 64, 32]] # 15
  - [-1, 1, AConv, [128]] # 16-P3/8
  - [-1, 1, RepNCSPELAN4, [128, 128, 64, 3]] #
  - [-1, 1, AConv, [192]] # 18-P4/16
  - [-1, 1, RepNCSPELAN4, [192, 192, 96, 3]] # 19
  - [-1, 1, AConv, [256]] # 20-P5/32
  - [-1, 1, RepNCSPELAN4, [256, 256, 128, 3]] # 21
  - [-1, 1, SPPELAN, [256, 128]] # 22

head:
  - [11, 1, nn.Upsample, [None, 2, "nearest"]]
  - [[-1, 8], 1, Concat, [1]] # cat backbone P4
  - [-1, 1, RepNCSPELAN4, [192, 192, 96, 3]] # 25

  - [-1, 1, nn.Upsample, [None, 2, "nearest"]]
  - [[-1, 6], 1, Concat, [1]] # cat backbone P3
  - [-1, 1, RepNCSPELAN4, [128, 128, 64, 3]] # 28


  - [22, 1, nn.Upsample, [None, 2, "nearest"]]
  - [[-1, 19], 1, Concat, [1]] # cat backbone P4
  - [-1, 1, RepNCSPELAN4, [192, 192, 96, 3]] # 31

  - [-1, 1, nn.Upsample, [None, 2, "nearest"]]
  - [[-1, 17], 1, Concat, [1]] # cat backbone P3
  - [-1, 1, RepNCSPELAN4, [128, 128, 64, 3]] # 34

  - [ [ 11, 22 ], 1, Concat, [ 1 ] ]  # cat head P5  35
  - [ [ 25, 31 ], 1, Concat, [ 1 ] ]  # cat head P5  36
  - [ [ 28, 34 ], 1, Concat, [ 1 ] ]  # cat head P5  37

  - [-1, 1, AConv, [96]]
  - [[-1, 36], 1, Concat, [1]] # cat head P4   39
  - [-1, 1, RepNCSPELAN4, [192, 192, 96, 3]] # 40 (P4/16-medium)

  - [-1, 1, AConv, [128]]
  - [[-1, 35], 1, Concat, [1]] # cat head P5
  - [-1, 1, RepNCSPELAN4, [256, 256, 128, 3]] # 43 (P5/32-large)

  - [[37, 40, 43], 1, Detect, [nc]] # Detect(P3, P4 P5)
