# Ultralytics YOLO 🚀, AGPL-3.0 license
# YOLOv9t object detection model. For Usage examples see https://docs.ultralytics.com/models/yolov9
# 917 layers, 2128720 parameters, 8.5 GFLOPs

# Parameters
nc: 80 # number of classes
ch: 4
# GELAN backbone
backbone:
  - [ -1, 1, Silence, [ ] ]  # 0-P1/2
  - [ 0, 1, SilenceChannel, [ 0,3 ] ]  # 1-P1/2
  - [-1, 1, Conv, [16, 3, 2]] # 2-P1/2
  - [-1, 1, Conv, [32, 3, 2]] # 3-P2/4
  - [-1, 1, ELAN1, [32, 32, 16]] # 4
  - [-1, 1, AConv, [64]] # 5-P3/8
  - [-1, 1, RepNCSPELAN4, [64, 64, 32, 3]] # 6


  - [ 0, 1, SilenceChannel, [ 3,4 ] ]  # 7-P1/2
  - [-1, 1, Conv, [16, 3, 2]] # 8-P1/2
  - [-1, 1, Conv, [32, 3, 2]] # 9-P2/4
  - [-1, 1, ELAN1, [32, 32, 16]] # 10
  - [-1, 1, AConv, [64]] # 11-P3/8
  - [-1, 1, RepNCSPELAN4, [64, 64, 32, 3]] # 12
  - [[6, 12], 1, Concat, [1]]  # cat backbone P3   13

  - [-1, 1, AConv, [96]] # 14-P4/16
  - [-1, 1, RepNCSPELAN4, [96, 96, 48, 3]] # 15
  - [-1, 1, AConv, [128]] # 16-P5/32
  - [-1, 1, RepNCSPELAN4, [128, 128, 64, 3]] # 17
  - [-1, 1, SPPELAN, [128, 64]] # 18

head:
  - [-1, 1, nn.Upsample, [None, 2, "nearest"]]
  - [[-1, 15], 1, Concat, [1]] # cat backbone P4
  - [-1, 1, RepNCSPELAN4, [96, 96, 48, 3]] # 21

  - [-1, 1, nn.Upsample, [None, 2, "nearest"]]
  - [[-1, 13], 1, Concat, [1]] # cat backbone P3
  - [-1, 1, RepNCSPELAN4, [64, 64, 32, 3]] # 24

  - [-1, 1, AConv, [48]]
  - [[-1, 21], 1, Concat, [1]] # cat head P4
  - [-1, 1, RepNCSPELAN4, [96, 96, 48, 3]] # 27 (P4/16-medium)

  - [-1, 1, AConv, [64]]
  - [[-1, 18], 1, Concat, [1]] # cat head P5
  - [-1, 1, RepNCSPELAN4, [128, 128, 64, 3]] # 30 (P5/32-large)

  - [[24, 27, 30], 1, Detect, [nc]] # Detect(P3, P4, P5)
