# Ultralytics 🚀 AGPL-3.0 License - https://ultralytics.com/license

# Meituan YOLOv6 object detection model with P3/8 - P5/32 outputs
# Model docs: https://docs.ultralytics.com/models/yolov6
# Task docs: https://docs.ultralytics.com/tasks/detect

# Parameters
nc: 80 # number of classes
activation: torch.nn.ReLU() # (optional) model default activation function
scales: # model compound scaling constants, i.e. 'model=yolov6n.yaml' will call yolov8.yaml with scale 'n'
  # [depth, width, max_channels]
  n: [0.33, 0.25, 1024]
  s: [0.33, 0.50, 1024]
  m: [0.67, 0.75, 768]
  l: [1.00, 1.00, 512]
  x: [1.00, 1.25, 512]

ch: 4
# YOLOv8.0n backbone
backbone:
  # [from, repeats, module, args]
  - [-1, 1, Silence, []]  # 0-P1/2
  - [0, 1, SilenceChannel, [0,3]]  # 1-P1/2
  - [-1, 1, Conv, [64, 3, 2]] # 2-P1/2
  - [-1, 1, Conv, [128, 3, 2]] # 3-P2/4
  - [-1, 6, Conv, [128, 3, 1]]
  - [-1, 1, Conv, [256, 3, 2]] # 5-P3/8
  - [-1, 12, Conv, [256, 3, 1]]
  - [-1, 1, Conv, [512, 3, 2]] # 7-P4/16
  - [-1, 18, Conv, [512, 3, 1]]
  - [-1, 1, Conv, [1024, 3, 2]] # 9-P5/32
  - [-1, 6, Conv, [1024, 3, 1]]  # 10
  - [-1, 1, SPPF, [1024, 5]] # 11

  - [0, 1, SilenceChannel, [3,4]]  # 12-P1/2
  - [-1, 1, Conv, [64, 3, 2]] # 13-P1/2
  - [-1, 1, Conv, [128, 3, 2]] # 14-P2/4
  - [-1, 6, Conv, [128, 3, 1]]
  - [-1, 1, Conv, [256, 3, 2]] # 16-P3/8
  - [-1, 12, Conv, [256, 3, 1]]
  - [-1, 1, Conv, [512, 3, 2]] # 18-P4/16
  - [-1, 18, Conv, [512, 3, 1]]
  - [-1, 1, Conv, [1024, 3, 2]] # 20-P5/32
  - [-1, 6, Conv, [1024, 3, 1]]
  - [-1, 1, SPPF, [1024, 5]] # 22

# YOLOv6-3.0s head
head:
  - [-1, 1, Conv, [256, 1, 1]]
  - [-1, 1, nn.ConvTranspose2d, [256, 2, 2, 0]]
  - [[-1, 8], 1, Concat, [1]] # cat backbone P4
  - [-1, 1, Conv, [256, 3, 1]]
  - [-1, 9, Conv, [256, 3, 1]] # 27

  - [-1, 1, Conv, [128, 1, 1]]
  - [-1, 1, nn.ConvTranspose2d, [128, 2, 2, 0]]
  - [[-1, 6], 1, Concat, [1]] # cat backbone P3
  - [-1, 1, Conv, [128, 3, 1]]
  - [-1, 9, Conv, [128, 3, 1]] # 32


  - [22, 1, Conv, [256, 1, 1]]
  - [-1, 1, nn.ConvTranspose2d, [256, 2, 2, 0]]
  - [[-1, 19], 1, Concat, [1]] # cat backbone P4
  - [-1, 1, Conv, [256, 3, 1]]
  - [-1, 9, Conv, [256, 3, 1]] # 37

  - [-1, 1, Conv, [128, 1, 1]]
  - [-1, 1, nn.ConvTranspose2d, [128, 2, 2, 0]]
  - [[-1, 17], 1, Concat, [1]] # cat backbone P3
  - [-1, 1, Conv, [128, 3, 1]]
  - [-1, 9, Conv, [128, 3, 1]] # 42

  - [ [ 23, 33 ], 1, Concat, [ 1 ] ]  # cat head P5  43
  - [ [ 28, 38 ], 1, Concat, [ 1 ] ]  # cat head P5  44
  - [ [ 32, 42 ], 1, Concat, [ 1 ] ]  # cat head P5  45




  - [-1, 1, Conv, [128, 3, 2]]
  - [[-1, 44], 1, Concat, [1]] # cat head P4
  - [-1, 1, Conv, [256, 3, 1]]
  - [-1, 9, Conv, [256, 3, 1]] # 49

  - [-1, 1, Conv, [256, 3, 2]]
  - [[-1, 43], 1, Concat, [1]] # cat head P5
  - [-1, 1, Conv, [512, 3, 1]]
  - [-1, 9, Conv, [512, 3, 1]] # 53

  - [[43, 49, 53], 1, Detect, [nc]] # Detect(P3, P4, P5)
