# Ultralytics 🚀 AGPL-3.0 License - https://ultralytics.com/license

# Meituan YOLOv6 object detection model with P3/8 - P5/32 outputs
# Model docs: https://docs.ultralytics.com/models/yolov6
# Task docs: https://docs.ultralytics.com/tasks/detect

# Parameters
nc: 80 # number of classes
activation: torch.nn.ReLU() # (optional) model default activation function
scales: # model compound scaling constants, i.e. 'model=yolov6n.yaml' will call yolov8.yaml with scale 'n'
  # [depth, width, max_channels]
  n: [0.33, 0.25, 1024]
  s: [0.33, 0.50, 1024]
  m: [0.67, 0.75, 768]
  l: [1.00, 1.00, 512]
  x: [1.00, 1.25, 512]

ch: 4
# YOLOv8.0n backbone
backbone:
  # [from, repeats, module, args]
  - [-1, 1, Silence, []]  # 0-P1/2
  - [0, 1, SilenceChannel, [0,3]]  # 1-P1/2
  - [-1, 1, Conv, [64, 3, 2]] # 2-P1/2
  - [-1, 1, Conv, [128, 3, 2]] # 3-P2/4
  - [-1, 6, Conv, [128, 3, 1]]
  - [-1, 1, Conv, [256, 3, 2]] # 5-P3/8
  - [-1, 12, Conv, [256, 3, 1]]
  - [-1, 1, Conv, [512, 3, 2]] # 7-P4/16
  - [-1, 18, Conv, [512, 3, 1]]
  - [-1, 1, Conv, [1024, 3, 2]] # 9-P5/32
  - [-1, 6, Conv, [1024, 3, 1]]  # 10

  - [0, 1, SilenceChannel, [3,4]]  # 11-P1/2
  - [-1, 1, Conv, [64, 3, 2]] # 12-P1/2
  - [-1, 1, Conv, [128, 3, 2]] # 13-P2/4
  - [-1, 6, Conv, [128, 3, 1]]
  - [-1, 1, Conv, [256, 3, 2]] # 15-P3/8
  - [-1, 12, Conv, [256, 3, 1]]
  - [-1, 1, Conv, [512, 3, 2]] # 17-P4/16
  - [-1, 18, Conv, [512, 3, 1]]
  - [-1, 1, Conv, [1024, 3, 2]] # 19-P5/32
  - [-1, 6, Conv, [1024, 3, 1]]

  - [[6, 16], 1, Concat, [1]]  # cat backbone P3   21
  - [[8, 18], 1, Concat, [1]]  # cat backbone P4   22
  - [[10, 20], 1, Concat, [1]]  # cat backbone P5   23
  - [-1, 1, SPPF, [1024, 5]] # 24

# YOLOv6-3.0s head
head:
  - [-1, 1, Conv, [256, 1, 1]]
  - [-1, 1, nn.ConvTranspose2d, [256, 2, 2, 0]]
  - [[-1, 22], 1, Concat, [1]] # cat backbone P4
  - [-1, 1, Conv, [256, 3, 1]]
  - [-1, 9, Conv, [256, 3, 1]] # 29

  - [-1, 1, Conv, [128, 1, 1]]
  - [-1, 1, nn.ConvTranspose2d, [128, 2, 2, 0]]
  - [[-1, 21], 1, Concat, [1]] # cat backbone P3
  - [-1, 1, Conv, [128, 3, 1]]
  - [-1, 9, Conv, [128, 3, 1]] # 34

  - [-1, 1, Conv, [128, 3, 2]]
  - [[-1, 30], 1, Concat, [1]] # cat head P4
  - [-1, 1, Conv, [256, 3, 1]]
  - [-1, 9, Conv, [256, 3, 1]] # 38

  - [-1, 1, Conv, [256, 3, 2]]
  - [[-1, 25], 1, Concat, [1]] # cat head P5
  - [-1, 1, Conv, [512, 3, 1]]
  - [-1, 9, Conv, [512, 3, 1]] # 42

  - [[34, 38, 42], 1, Detect, [nc]] # Detect(P3, P4, P5)
