#PYOLOE-S,backbone,neck
# Parameters
nc: 80  # number of classes
scales: # model compound scaling constants, i.e. 'model=yolov8n-cls.yaml' will call yolov8-cls.yaml with scale 'n'
  # [depth, width, max_channels]
  l: [1.00, 1.00, 1024]

ch: 4
# PPYOLOE backbone by yoloair
backbone:
  # [from, number, module, args]
  [
    [ -1, 1, Silence, [ ] ] , # 0-P1/2

    [ 0, 1, SilenceChannel, [ 0,3 ] ] , # 1-P1/2
    [-1, 1, CSPResNet_CBS, [3, 32, True]],  #2 /2
    [-1, 1, CSPResNet, [32, 64, 1, 2, 'backbone']],  #3  /4
    [-1, 1, CSPResNet, [64, 128, 2, 2, 'backbone']],  #4 cat /8 out


    [ 0, 1, SilenceChannel, [ 3,4 ] ] , # 5-P1/2
    [ -1, 1, CSPResNet_CBS, [ 1, 32, True ] ],  #6 /2
    [ -1, 1, CSPResNet, [ 32, 64, 1, 2, 'backbone' ] ],  # 7  /4
    [ -1, 1, CSPResNet, [ 64, 128, 2, 2, 'backbone' ] ],  #8 cat /8 out

    [[4, 8], 1, Concat, [1]],  # cat backbone B3   9

    [-1, 1, CSPResNet, [256, 256,1,2, 'backbone']],  #10 cat  /16 out
    [-1, 1, CSPResNet, [256, 512,1,2, 'backbone']],  #11  /32

    [-1, 1, ConvBNLayer, [512, 192, 1]],  #12
    [11, 1, ResSPP, [512, 192, 1]],  # 13
    [[-1, 12], 1, Concat, [1]],  # cat   14   out
    [-1, 1, ConvBNLayer,[384, 384, 1]],  #15

  ]

# YOLOv5 v6.0 head
head:
  [
    [-1,1,ConvBNLayer,[384, 192, 1]],  #16
    [-1, 1, nn.Upsample, [None, 2, 'nearest']],#17
    [[-1, 10], 1, Concat, [1]],  # 18
    [-1, 1, CSPResNet, [448, 192, 1, 1,'neck']],  # 19   out

    [-1,1,ConvBNLayer,[192, 96, 1]],  #20
    [-1, 1, nn.Upsample, [None, 2, 'nearest']], #21
    [[-1, 9], 1, Concat, [1]],  # 22
    [-1, 1, CSPResNet, [352,96,1,1,'neck']],  # 23    output

    [-1,1,ConvBNLayer,[96, 96, 3,2,1,1]],  #24
    [[-1, 19], 1, Concat, [1]],  # 25
    [-1, 1, CSPResNet, [288,192,1,1,'neck']],  # 26    output

    [-1,1,ConvBNLayer,[192, 192, 3,2,1,1]],  #27
    [[-1, 14], 1, Concat, [1]],  # 28
    [-1, 1, CSPResNet, [576,384,1,1,'neck']],  # 29    output

    [[23, 26, 29], 1, Detect, [nc]],  # Detect
  ]
