#PYOLOE-S,backbone,neck
# Parameters
nc: 80  # number of classes
scales: # model compound scaling constants, i.e. 'model=yolov8n-cls.yaml' will call yolov8-cls.yaml with scale 'n'
  # [depth, width, max_channels]
  l: [1.00, 1.00, 1024]

ch: 4
# PPYOLOE backbone by yoloair
backbone:
  # [from, number, module, args]
  [
    [ -1, 1, Silence, [ ] ] , # 0-P1/2

    [ 0, 1, SilenceChannel, [ 0,3 ] ] , # 1-P1/2
    [-1, 1, CSPResNet_CBS, [3, 32, True]],  #2 /2
    [-1, 1, CSPResNet, [32, 64, 1, 2, 'backbone']],  #3  /4
    [-1, 1, CSPResNet, [64, 128, 2, 2, 'backbone']],  #4 cat /8 out
    [-1, 1, CSPResNet, [128, 256,1,2, 'backbone']],  #5 cat  /16 out
    [-1, 1, CSPResNet, [256, 512,1,2, 'backbone']],  #6  /32

    [ 0, 1, SilenceChannel, [ 3,4 ] ] , # 7-P1/2
    [ -1, 1, CSPResNet_CBS, [ 1, 32, True ] ],  #8 /2
    [ -1, 1, CSPResNet, [ 32, 64, 1, 2, 'backbone' ] ],  # 9  /4
    [ -1, 1, CSPResNet, [ 64, 128, 2, 2, 'backbone' ] ],  #10 cat /8 out
    [ -1, 1, CSPResNet, [ 128, 256,1,2, 'backbone' ] ],  #11 cat  /16 out
    [ -1, 1, CSPResNet, [ 256, 512,1,2, 'backbone' ] ],  #12 /32

    [[4, 10], 1, CrossTransformerFusion, []],  # cat backbone B3   13
    [[5, 11], 1, CrossTransformerFusion, []], # cat backbone B4   14
    [[6, 12], 1, CrossTransformerFusion, []],  # cat backbone P5   15

    [-1, 1, ConvBNLayer, [1024, 192, 1]],  #16
    [15, 1, ResSPP, [1024, 192, 1]],  # 17
    [[-1, 16], 1, Concat, [1]],  # cat   18   out
    [-1, 1, ConvBNLayer,[384, 384, 1]],  #19

  ]

# YOLOv5 v6.0 head
head:
  [
    [-1,1,ConvBNLayer,[384, 192, 1]],  #20
    [-1, 1, nn.Upsample, [None, 2, 'nearest']],#21
    [[-1, 14], 1, Concat, [1]],  # 22
    [-1, 1, CSPResNet, [704, 192, 1, 1,'neck']],  # 23   out

    [-1,1,ConvBNLayer,[192, 96, 1]],  #24
    [-1, 1, nn.Upsample, [None, 2, 'nearest']], #25
    [[-1, 13], 1, Concat, [1]],  # 26
    [-1, 1, CSPResNet, [352,96,1,1,'neck']],  # 27    output

    [-1,1,ConvBNLayer,[96, 96, 3,2,1,1]],  #28
    [[-1, 23], 1, Concat, [1]],  # 29
    [-1, 1, CSPResNet, [288,192,1,1,'neck']],  # 30    output

    [-1,1,ConvBNLayer,[192, 192, 3,2,1,1]],  #31
    [[-1, 18], 1, Concat, [1]],  # 32
    [-1, 1, CSPResNet, [576,384,1,1,'neck']],  # 33    output

    [[27, 30, 33], 1, Detect, [nc]],  # Detect
  ]
