#PYOLOE-S,backbone,neck
# Parameters
nc: 80  # number of classes
scales: # model compound scaling constants, i.e. 'model=yolov8n-cls.yaml' will call yolov8-cls.yaml with scale 'n'
  # [depth, width, max_channels]
  l: [1.00, 1.00, 1024]

ch: 4
# PPYOLOE backbone by yoloair
backbone:
  # [from, number, module, args]
  [
    [ -1, 1, Silence, [ ] ] , # 0-P1/2
    [ 0, 1, SilenceChannel, [ 0,4 ] ] , # 1-P1/2

    [-1, 1, CSPResNet_CBS, [4, 32, True]],  #2 /2
    [-1, 1, CSPResNet, [32, 64, 1, 2, 'backbone']],  #3  /4
    [-1, 1, CSPResNet, [64, 128, 2, 2, 'backbone']],  #4 cat /8 out
    [-1, 1, CSPResNet, [128, 256,1,2, 'backbone']],  #5 cat  /16 out
    [-1, 1, CSPResNet, [256, 512,1,2, 'backbone']],  #6  /32
    [-1, 1, ConvBNLayer, [512, 192, 1]],  #7
    [6, 1, ResSPP, [512, 192, 1]],  # 8
    [[-1, 7], 1, Concat, [1]],  # cat   9   out
    [-1, 1, ConvBNLayer,[384, 384, 1]],  #10
  ]

# YOLOv5 v6.0 head
head:
  [
    [-1,1,ConvBNLayer,[384, 192, 1]],  #11
    [-1, 1, nn.Upsample, [None, 2, 'nearest']],#12
    [[-1, 5], 1, Concat, [1]],  # 13
    [-1, 1, CSPResNet, [448, 192, 1, 1,'neck']],  # 14   out

    [-1,1,ConvBNLayer,[192, 96, 1]],  #15
    [-1, 1, nn.Upsample, [None, 2, 'nearest']], #16
    [[-1, 4], 1, Concat, [1]],  # 17
    [-1, 1, CSPResNet, [224,96,1,1,'neck']],  # 18    output

    [-1,1,ConvBNLayer,[96, 96, 3,2,1,1]],  #19
    [[-1, 14], 1, Concat, [1]],  # 20
    [-1, 1, CSPResNet, [288,192,1,1,'neck']],  # 21    output

    [-1,1,ConvBNLayer,[192, 192, 3,2,1,1]],  #22
    [[-1, 9], 1, Concat, [1]],  # 23
    [-1, 1, CSPResNet, [576,384,1,1,'neck']],  # 24    output

    [[18, 21, 23], 1, Detect, [nc]],  # Detect
  ]
