# Ultralytics 🚀 AGPL-3.0 License - https://ultralytics.com/license

# Ultralytics YOLO11 object detection model with P3/8 - P5/32 outputs
# Model docs: https://docs.ultralytics.com/models/yolo11
# Task docs: https://docs.ultralytics.com/tasks/detect

# https://github.com/DocF/multispectral-object-detection   参考链接
# Parameters
nc: 80 # number of classes
scales: # model compound scaling constants, i.e. 'model=yolo11n.yaml' will call yolo11.yaml with scale 'n'
  # [depth, width, max_channels]
  n: [0.50, 0.25, 1024] # summary: 319 layers, 2624080 parameters, 2624064 gradients, 6.6 GFLOPs
  s: [0.50, 0.50, 1024] # summary: 319 layers, 9458752 parameters, 9458736 gradients, 21.7 GFLOPs
  m: [0.50, 1.00, 512] # summary: 409 layers, 20114688 parameters, 20114672 gradients, 68.5 GFLOPs
  l: [1.00, 1.00, 512] # summary: 631 layers, 25372160 parameters, 25372144 gradients, 87.6 GFLOPs
  x: [1.00, 1.50, 512] # summary: 631 layers, 56966176 parameters, 56966160 gradients, 196.0 GFLOPs

ch: 4
# YOLOv8.0n backbone
backbone:
  # [from, repeats, module, args]
  - [-1, 1, Silence, []]  # 0-P1/2
  # visible
  - [0, 1, SilenceChannel, [0,3]]  # 1-P1/2
  - [-1, 1, Conv, [64, 3, 2]] # 2-P1/2
  - [-1, 1, Conv, [128, 3, 2]] # 3-P2/4
  - [-1, 2, C3k2, [256, False, 0.25]]
  - [-1, 1, Conv, [256, 3, 2]] # 5-P3/8
  - [-1, 2, C3k2, [512, False, 0.25]]

  # infrared
  - [ 0, 1, SilenceChannel, [ 3,4 ] ]  # 7-P1/2
  - [ -1, 1, Conv, [ 64, 3, 2 ] ] # 8-P1/2
  - [ -1, 1, Conv, [ 128, 3, 2 ] ] # 9-P2/4
  - [ -1, 2, C3k2, [ 256, False, 0.25 ] ]
  - [ -1, 1, Conv, [ 256, 3, 2 ] ] # 11-P3/8
  - [ -1, 2, C3k2, [ 512, False, 0.25 ] ] #12

  - [[6, 12], 1, GPT, [512]]  # cat backbone P3   13     CFT 1
  - [[6,13], 1, Add2, [512,0]]    # 14-P3/8 stream one x+trans[0]
  - [[12,13], 1, Add2, [512,1]]    # 15-P3/8 stream two x+trans[1]

  # visible
  - [14, 1, Conv, [512, 3, 2]] # 16 -P4/16
  - [-1, 2, C3k2, [512, True]]

  # infrared
  - [ 15, 1, Conv, [ 512, 3, 2 ] ] # 18-P4/16
  - [ -1, 2, C3k2, [ 512, True ] ]

  - [[17, 19], 1, GPT, [512]]  # cat backbone P4   20     CFT 2
  - [[17,20], 1, Add2, [512,0]]  # cat backbone P4  21
  - [[19,20], 1, Add2, [512,1]]  # cat backbone P4   22

  # visible
  - [21, 1, Conv, [1024, 3, 2]] # 23-P5/32
  - [-1, 2, C3k2, [1024, True]] # 24

  # infrared
  - [ 22, 1, Conv, [ 1024, 3, 2 ] ] # 25-P5/32
  - [ -1, 2, C3k2, [ 1024, True ] ]  #26

  - [[24, 26], 1, GPT, [1024]]  # cat backbone P5   27     CFT 3
  - [[24,27], 1, Add2, [1024,0]]  # cat backbone P5   28
  - [[26,27], 1, Add2, [1024,1]]  # cat backbone P5   29

  ######### Add Block #############
  - [[14,15], 1, ADD, []]   # 30-P3/8 fusion backbone P3
  - [[21,22], 1, ADD, []]   # 31-P4/16 fusion backbone P4
  - [[28,29], 1, ADD, []]   # 32-P5/32 fusion backbone P5

  - [ -1, 1, SPPF, [ 1024, 5 ] ] # 33
  - [ -1, 2, C2PSA, [ 1024 ] ] # 34

# YOLO11n head
head:
  - [-1, 1, nn.Upsample, [None, 2, "nearest"]]
  - [[-1, 31], 1, Concat, [1]] # cat backbone P4
  - [-1, 2, C3k2, [512, False]] # 37

  - [-1, 1, nn.Upsample, [None, 2, "nearest"]]
  - [[-1, 30], 1, Concat, [1]] # cat backbone P3
  - [-1, 2, C3k2, [256, False]] # 40 (P3/8-small)

  - [-1, 1, Conv, [256, 3, 2]]
  - [[-1, 37], 1, Concat, [1]] # cat head P4
  - [-1, 2, C3k2, [512, False]] # 43 (P4/16-medium)

  - [-1, 1, Conv, [512, 3, 2]]
  - [[-1, 34], 1, Concat, [1]] # cat head P5
  - [-1, 2, C3k2, [1024, True]] # 46 (P5/32-large)

  - [[40, 43, 46], 1, Detect, [nc]] # Detect(P3, P4, P5)
