# Ultralytics 🚀 AGPL-3.0 License - https://ultralytics.com/license

# Ultralytics YOLO11 object detection model with P3/8 - P5/32 outputs
# Model docs: https://docs.ultralytics.com/models/yolo11
# Task docs: https://docs.ultralytics.com/tasks/detect

# Parameters
nc: 80 # number of classes
scales: # model compound scaling constants, i.e. 'model=yolo11n.yaml' will call yolo11.yaml with scale 'n'
  # [depth, width, max_channels]
  n: [0.50, 0.25, 1024] # summary: 319 layers, 2624080 parameters, 2624064 gradients, 6.6 GFLOPs
  s: [0.50, 0.50, 1024] # summary: 319 layers, 9458752 parameters, 9458736 gradients, 21.7 GFLOPs
  m: [0.50, 1.00, 512] # summary: 409 layers, 20114688 parameters, 20114672 gradients, 68.5 GFLOPs
  l: [1.00, 1.00, 512] # summary: 631 layers, 25372160 parameters, 25372144 gradients, 87.6 GFLOPs
  x: [1.00, 1.50, 512] # summary: 631 layers, 56966176 parameters, 56966160 gradients, 196.0 GFLOPs

ch: 6
# YOLOv8.0n backbone
backbone:
  # [from, repeats, module, args]
  - [-1, 1, Silence, []]  # 0-P1/2
  # visible
  - [0, 1, SilenceChannel, [0,3]]  # 1-P1/2
  - [-1, 1, Conv, [64, 3, 2]] # 2-P1/2
  - [-1, 1, Conv, [128, 3, 2]] # 3-P2/4
  - [-1, 2, C3k2, [256, False, 0.25]]
  - [-1, 1, Conv, [256, 3, 2]] # 5-P3/8
  - [-1, 2, C3k2, [512, False, 0.25]]
  - [-1, 1, Conv, [512, 3, 2]] # 7-P4/16
  - [-1, 2, C3k2, [512, True]]
  - [-1, 1, Conv, [1024, 3, 2]] # 9-P5/32
  - [-1, 2, C3k2, [1024, True]]
  - [-1, 1, SPPF, [1024, 5]] # 11
  - [-1, 2, C2PSA, [1024]] # 12

  # infrared
  - [ 0, 1, SilenceChannel, [ 3,6] ]  # 13-P1/2
  - [ -1, 1, Conv, [ 64, 3, 2 ] ] # 14-P1/2
  - [ -1, 1, Conv, [ 128, 3, 2 ] ] # 15-P2/4
  - [ -1, 2, C3k2, [ 256, False, 0.25 ] ]
  - [ -1, 1, Conv, [ 256, 3, 2 ] ] # 17-P3/8
  - [ -1, 2, C3k2, [ 512, False, 0.25 ] ]
  - [ -1, 1, Conv, [ 512, 3, 2 ] ] # 19-P4/16
  - [ -1, 2, C3k2, [ 512, True ] ]
  - [ -1, 1, Conv, [ 1024, 3, 2 ] ] # 21-P5/32
  - [ -1, 2, C3k2, [ 1024, True ] ]
  - [ -1, 1, SPPF, [ 1024, 5 ] ] # 23
  - [ -1, 2, C2PSA, [ 1024 ] ] # 24

# YOLO11n head
head:
  # visible
  - [12, 1, nn.Upsample, [None, 2, "nearest"]]
  - [[-1, 8], 1, Concat, [1]] # cat backbone P4
  - [-1, 2, C3k2, [512, False]] # 27

  - [-1, 1, nn.Upsample, [None, 2, "nearest"]]
  - [[-1, 6], 1, Concat, [1]] # cat backbone P3
  - [-1, 2, C3k2, [256, False]] # 30 (P3/8-small)

  # infrared
  - [ 24, 1, nn.Upsample, [ None, 2, "nearest" ] ]
  - [ [ -1, 20 ], 1, Concat, [ 1 ] ] # cat backbone P4
  - [ -1, 2, C3k2, [ 512, False ] ] # 33

  - [ -1, 1, nn.Upsample, [ None, 2, "nearest" ] ]
  - [ [ -1, 18 ], 1, Concat, [ 1 ] ] # cat backbone P3
  - [ -1, 2, C3k2, [ 256, False ] ] # 36 (P3/8-small)

  - [ [ 12, 24 ], 1, Concat, [ 1 ] ]  # cat head P5  37
  - [ [ 27, 33 ], 1, Concat, [ 1 ] ]  # cat head P5  38
  - [ [ 30, 36 ], 1, Concat, [ 1 ] ]  # cat head P5  39

  - [39, 1, Conv, [256, 3, 2]]
  - [[-1, 38], 1, Concat, [1]] # cat head P4
  - [-1, 2, C3k2, [512, False]] # 42 (P4/16-medium)

  - [-1, 1, Conv, [512, 3, 2]]
  - [[-1, 37], 1, Concat, [1]] # cat head P5
  - [-1, 2, C3k2, [1024, True]] # 45 (P5/32-large)

  - [[39, 42, 45], 1, Detect, [nc]] # Detect(P3, P4, P5)
