# Ultralytics 🚀 AGPL-3.0 License - https://ultralytics.com/license

# Ultralytics RT-DETR-ResNet50 hybrid object detection model with P3/8 - P5/32 outputs
# Model docs: https://docs.ultralytics.com/models/rtdetr
# Task docs: https://docs.ultralytics.com/tasks/detect

# Parameters
nc: 80 # number of classes
scales: # model compound scaling constants, i.e. 'model=yolov8n-cls.yaml' will call yolov8-cls.yaml with scale 'n'
  # [depth, width, max_channels]
  l: [1.00, 1.00, 1024]

ch: 4
backbone:
  # [from, repeats, module, args]
  - [-1, 1, Silence, []]  # 0-P1/2
  - [0, 1, SilenceChannel, [0,4]]  # 1-P1/2
  - [-1, 1, ResNetLayer, [4, 64, 1, True, 1]] # 2
  - [-1, 1, ResNetLayer, [64, 64, 1, False, 3]] # 3
  - [-1, 1, ResNetLayer, [256, 128, 2, False, 4]] #4
  - [-1, 1, ResNetLayer, [512, 256, 2, False, 6]] # 5
  - [-1, 1, ResNetLayer, [1024, 512, 2, False, 3]] # 6

head:
  - [-1, 1, Conv, [256, 1, 1, None, 1, 1, False]] # 7
  - [-1, 1, AIFI, [1024, 8]]
  - [-1, 1, Conv, [256, 1, 1]] # 9

  - [-1, 1, nn.Upsample, [None, 2, "nearest"]]
  - [5, 1, Conv, [256, 1, 1, None, 1, 1, False]] # 11
  - [[-2, -1], 1, Concat, [1]]
  - [-1, 3, RepC3, [256]] # 13
  - [-1, 1, Conv, [256, 1, 1]] # 14

  - [-1, 1, nn.Upsample, [None, 2, "nearest"]]
  - [4, 1, Conv, [256, 1, 1, None, 1, 1, False]] # 16
  - [[-2, -1], 1, Concat, [1]] # cat backbone P4
  - [-1, 3, RepC3, [256]] # X3 (18), fpn_blocks.1

  - [-1, 1, Conv, [256, 3, 2]] # 19, downsample_convs.0
  - [[-1, 14], 1, Concat, [1]] # cat Y4
  - [-1, 3, RepC3, [256]] # F4 (21), pan_blocks.0

  - [-1, 1, Conv, [256, 3, 2]] # 22, downsample_convs.1
  - [[-1, 9], 1, Concat, [1]] # cat Y5
  - [-1, 3, RepC3, [256]] # F5 (24), pan_blocks.1

  - [[18, 21, 24], 1, RTDETRDecoder, [nc]] # Detect(P3, P4, P5)
