nc: 80 # number of classes
scales: # model compound scaling constants, i.e. 'model=yolov13n.yaml' will call yolov13.yaml with scale 'n'
  # [depth, width, max_channels]
  n: [0.50, 0.25, 1024]   # Nano
  s: [0.50, 0.50, 1024]   # Small
  l: [1.00, 1.00, 512]    # Large
  x: [1.00, 1.50, 512]    # Extra Large

ch: 4
backbone:
  # [from, repeats, module, args]
  - [-1, 1, Silence, []]  # 0-P1/2
  - [0, 1, SilenceChannel, [0,3]]  # 1-P1/2
  - [-1, 1, Conv,  [64, 3, 2]] # 2-P1/2
  - [-1, 1, Conv,  [128, 3, 2, 1, 2]] # 3-P2/4
  - [-1, 2, DSC3k2,  [256, False, 0.25]]
  - [-1, 1, Conv,  [256, 3, 2, 1, 4]] # 5-P3/8
  - [-1, 2, DSC3k2,  [512, False, 0.25]]

  - [ 0, 1, SilenceChannel, [ 3,4 ] ]  # 7-P1/2
  - [ -1, 1, Conv,  [ 64, 3, 2 ] ] # 8-P1/2
  - [ -1, 1, Conv,  [ 128, 3, 2, 1, 2 ] ] # 9-P2/4
  - [ -1, 2, DSC3k2,  [ 256, False, 0.25 ] ]
  - [ -1, 1, Conv,  [ 256, 3, 2, 1, 4 ] ] # 11-P3/8
  - [ -1, 2, DSC3k2,  [ 512, False, 0.25 ] ]

  - [[6, 12], 1, Concat, [1]]  # cat backbone P3   13
  - [ -1, 1, Conv,  [ 512, 1] ] # 14-P3/8

  - [ -2, 1, DSConv,  [ 512, 3, 2 ] ] # 15-P4/16
  - [ -1, 4, A2C2f, [ 512, True, 4 ] ]
  - [ -1, 1, DSConv,  [ 1024, 3, 2 ] ] # 17-P5/32
  - [ -1, 4, A2C2f, [ 1024, True, 1 ] ] # 18


head:
  - [[14,15,17], 2, HyperACE, [512, 8, True, True, 0.5, 1, "both"]] # P4/16   19
  - [-1, 1, nn.Upsample, [None, 2, "nearest"]] # P5/32 20
  - [ 19, 1, DownsampleConv, []] # P3/8 21
  - [[15, 19], 1, FullPAD_Tunnel, []]  #     22
  - [[14, 20], 1, FullPAD_Tunnel, []]  #     23
  - [[18, 21], 1, FullPAD_Tunnel, []] #      24

  - [-1, 1, nn.Upsample, [None, 2, "nearest"]]  # 25
  - [[-1, 22], 1, Concat, [1]] # cat backbone P4
  - [-1, 2, DSC3k2, [512, True]] #      27
  - [[-1, 19], 1, FullPAD_Tunnel, []]  #    28

  - [27, 1, nn.Upsample, [None, 2, "nearest"]]
  - [[-1, 23], 1, Concat, [1]] # cat backbone P3
  - [-1, 2, DSC3k2, [256, True]] #   31
  - [20, 1, Conv, [256, 1, 1]]
  - [[31, 32], 1, FullPAD_Tunnel, []]  #  33
#
  - [-1, 1, Conv, [256, 3, 2]]  # 34
  - [[-1, 28], 1, Concat, [1]] # cat head P4  35
  - [-1, 2, DSC3k2, [512, True]] #   36
  - [[-1, 19], 1, FullPAD_Tunnel, []]  # 37
##
  - [36, 1, Conv, [512, 3, 2]]
  - [[-1, 24], 1, Concat, [1]] # cat head P5  39
  - [-1, 2, DSC3k2, [1024,True]] # 40 (P5/32-large)
  - [[-1, 21], 1, FullPAD_Tunnel, []]  # 41
#
  - [[33, 37, 41], 1, Detect, [nc]] # Detect(P3, P4, P5)


