nc: 80 # number of classes
scales: # model compound scaling constants, i.e. 'model=yolov13n.yaml' will call yolov13.yaml with scale 'n'
  # [depth, width, max_channels]
  n: [0.50, 0.25, 1024]   # Nano
  s: [0.50, 0.50, 1024]   # Small
  l: [1.00, 1.00, 512]    # Large
  x: [1.00, 1.50, 512]    # Extra Large

ch: 4
backbone:
  # [from, repeats, module, args]
  - [-1, 1, Silence, []]  # 0-P1/2
  - [0, 1, SilenceChannel, [0,3]]  # 1-P1/2
  - [-1, 1, Conv,  [64, 3, 2]] # 2-P1/2
  - [-1, 1, Conv,  [128, 3, 2, 1, 2]] # 3-P2/4
  - [-1, 2, DSC3k2,  [256, False, 0.25]]
  - [-1, 1, Conv,  [256, 3, 2, 1, 4]] # 5-P3/8
  - [-1, 2, DSC3k2,  [512, False, 0.25]]
  - [-1, 1, DSConv,  [512, 3, 2]] # 7-P4/16
  - [-1, 4, A2C2f, [512, True, 4]]
  - [-1, 1, DSConv,  [1024, 3, 2]] # 9-P5/32
  - [-1, 4, A2C2f, [1024, True, 1]] # 10

  - [ 0, 1, SilenceChannel, [ 3,4 ] ]  # 11-P1/2
  - [ -1, 1, Conv,  [ 64, 3, 2 ] ] # 12-P1/2
  - [ -1, 1, Conv,  [ 128, 3, 2, 1, 2 ] ] # 13-P2/4
  - [ -1, 2, DSC3k2,  [ 256, False, 0.25 ] ]
  - [ -1, 1, Conv,  [ 256, 3, 2, 1, 4 ] ] # 15-P3/8
  - [ -1, 2, DSC3k2,  [ 512, False, 0.25 ] ]
  - [ -1, 1, DSConv,  [ 512, 3, 2 ] ] # 17-P4/16
  - [ -1, 4, A2C2f, [ 512, True, 4 ] ]
  - [ -1, 1, DSConv,  [ 1024, 3, 2 ] ] # 19-P5/32
  - [ -1, 4, A2C2f, [ 1024, True, 1 ] ] # 20


head:
  - [[6, 8, 10], 2, HyperACE, [512, 8, True, True, 0.5, 1, "both"]] # P4/21
  - [-1, 1, nn.Upsample, [None, 2, "nearest"]] # P5/32
  - [ 21, 1, DownsampleConv, []] # P3/8  23
  - [[8, 21], 1, FullPAD_Tunnel, []]  # 24
  - [[6, 22], 1, FullPAD_Tunnel, []]  # 25
  - [[10, 23], 1, FullPAD_Tunnel, []] # 26

  - [-1, 1, nn.Upsample, [None, 2, "nearest"]]
  - [[-1, 24], 1, Concat, [1]] # cat backbone P4
  - [-1, 2, DSC3k2, [512, True]] # 29
  - [[-1, 21], 1, FullPAD_Tunnel, []]  #30

  - [29, 1, nn.Upsample, [None, 2, "nearest"]]
  - [[-1, 25], 1, Concat, [1]] # cat backbone P3
  - [-1, 2, DSC3k2, [256, True]] # 33
  - [22, 1, Conv, [256, 1, 1]]
  - [[33, 34], 1, FullPAD_Tunnel, []]  #35

  - [-1, 1, Conv, [256, 3, 2]]
  - [[-1, 30], 1, Concat, [1]] # cat head P4
  - [-1, 2, DSC3k2, [512, True]] # 38
  - [[-1, 21], 1, FullPAD_Tunnel, []]

  - [38, 1, Conv, [512, 3, 2]]
  - [[-1, 26], 1, Concat, [1]] # cat head P5
  - [-1, 2, DSC3k2, [1024,True]] # 42 (P5/32-large)
  - [[-1, 23], 1, FullPAD_Tunnel, []]  # 43



  - [[16, 18, 20], 2, HyperACE, [512, 8, True, True, 0.5, 1, "both"]] # P4/ 44
  - [-1, 1, nn.Upsample, [None, 2, "nearest"]] # P5/32
  - [ 44, 1, DownsampleConv, []] # P3/8
  - [[18, 44], 1, FullPAD_Tunnel, []]  #   47
  - [[16, 45], 1, FullPAD_Tunnel, []]  #  48
  - [[20, 46], 1, FullPAD_Tunnel, []] #   49

  - [-1, 1, nn.Upsample, [None, 2, "nearest"]]
  - [[-1, 37], 1, Concat, [1]] # cat backbone P4
  - [-1, 2, DSC3k2, [512, True]] #   52
  - [[-1, 44], 1, FullPAD_Tunnel, []]  #  53
#
  - [52, 1, nn.Upsample, [None, 2, "nearest"]]
  - [[-1, 48], 1, Concat, [1]] # cat backbone P3
  - [-1, 2, DSC3k2, [256, True]] #   56
  - [45, 1, Conv, [256, 1, 1]]
  - [[56, 57], 1, FullPAD_Tunnel, []]  # 58
#
  - [-1, 1, Conv, [256, 3, 2]]
  - [[-1, 53], 1, Concat, [1]] # cat head P4
  - [-1, 2, DSC3k2, [512, True]] #   61
  - [[-1, 44], 1, FullPAD_Tunnel, []]
#
  - [61, 1, Conv, [512, 3, 2]]
  - [[-1, 49], 1, Concat, [1]] # cat head P5
  - [-1, 2, DSC3k2, [1024,True]] # 65 (P5/32-large)
  - [[-1, 46], 1, FullPAD_Tunnel, []] # 66

#  - [[10], 1, Detect, [nc]] # Detect(P3, P4, P5)
  - [[35,39,43,58, 62, 66], 1, Detect, [nc]] # Detect(P3, P4, P5)

