nc: 80 # number of classes
scales: # model compound scaling constants, i.e. 'model=yolov13n.yaml' will call yolov13.yaml with scale 'n'
  # [depth, width, max_channels]
  n: [0.50, 0.25, 1024]   # Nano
  s: [0.50, 0.50, 1024]   # Small
#  l: [1.00, 1.00, 512]    # Large
#  x: [1.00, 1.50, 512]    # Extra Large

ch: 4
backbone:
  # [from, repeats, module, args]
  - [-1, 1, Silence, []]  # 0-P1/2
  - [0, 1, SilenceChannel, [0,3]]  # 1-P1/2
  - [-1, 1, Conv,  [64, 3, 2]] # 2-P1/2
  - [-1, 1, Conv,  [128, 3, 2, 1, 2]] # 3-P2/4
  - [-1, 2, DSC3k2,  [256, False, 0.25]]
  - [-1, 1, Conv,  [256, 3, 2, 1, 4]] # 5-P3/8
  - [-1, 2, DSC3k2,  [512, False, 0.25]]
  - [-1, 1, DSConv,  [512, 3, 2]] # 7-P4/16
  - [-1, 4, A2C2f, [512, True, 4]]
  - [-1, 1, DSConv,  [1024, 3, 2]] # 9-P5/32
  - [-1, 4, A2C2f, [1024, True, 1]] # 10

  - [ 0, 1, SilenceChannel, [ 3,4 ] ]  # 11-P1/2
  - [ -1, 1, Conv,  [ 64, 3, 2 ] ] # 12-P1/2
  - [ -1, 1, Conv,  [ 128, 3, 2, 1, 2 ] ] # 13-P2/4
  - [ -1, 2, DSC3k2,  [ 256, False, 0.25 ] ]
  - [ -1, 1, Conv,  [ 256, 3, 2, 1, 4 ] ] # 15-P3/8
  - [ -1, 2, DSC3k2,  [ 512, False, 0.25 ] ]
  - [ -1, 1, DSConv,  [ 512, 3, 2 ] ] # 17-P4/16
  - [ -1, 4, A2C2f, [ 512, True, 4 ] ]
  - [ -1, 1, DSConv,  [ 1024, 3, 2 ] ] # 19-P5/32
  - [ -1, 4, A2C2f, [ 1024, True, 1 ] ] # 20

  - [[6, 16], 1, Concat, [1]]  # cat backbone P3   21
  - [[8, 18], 1, Concat, [1]]  # cat backbone P4   22
  - [[10, 20], 1, Concat, [1]]  # cat backbone P5   23

head:
#  - [[6, 8, 10,16,18, 20], 2, HyperACE, [1024, 8, True, True, 0.5, 1, "both"]] # P4/16   24
  - [[21,22,23], 2, HyperACE, [1024, 8, True, True, 0.5, 1, "both"]] # P4/16   24
  - [-1, 1, nn.Upsample, [None, 2, "nearest"]] # P5/32 25
  - [ 24, 1, DownsampleConv, []] # P3/8 26
  - [[22, 24], 1, FullPAD_Tunnel, []]  #   27
  - [[21, 25], 1, FullPAD_Tunnel, []]  #   28
  - [[23, 26], 1, FullPAD_Tunnel, []] #    29

  - [-1, 1, nn.Upsample, [None, 2, "nearest"]]
  - [[-1, 27], 1, Concat, [1]] # cat backbone P4
  - [-1, 2, DSC3k2, [1024, True]] #    32
  - [[-1, 24], 1, FullPAD_Tunnel, []]  #  33

  - [32, 1, nn.Upsample, [None, 2, "nearest"]]
  - [[-1, 28], 1, Concat, [1]] # cat backbone P3
  - [-1, 2, DSC3k2, [256, True]] #   36
  - [25, 1, Conv, [256, 1, 1]]
  - [[36, 37], 1, FullPAD_Tunnel, []]  #  38

  - [-1, 1, Conv, [256, 3, 2]]  # 39
  - [[-1, 33], 1, Concat, [1]] # cat head P4  40
  - [-1, 2, DSC3k2, [1024, True]] #   41
  - [[-1, 24], 1, FullPAD_Tunnel, []]  # 42
#
  - [41, 1, Conv, [512, 3, 2]]
  - [[-1, 29], 1, Concat, [1]] # cat head P5  43
  - [-1, 2, DSC3k2, [1024,True]] # 44 (P5/32-large)
  - [26, 1, Conv, [1024, 3]]
  - [[-1, -2], 1, FullPAD_Tunnel, []]  # 46

  - [[38, 42, 46], 1, Detect, [nc]] # Detect(P3, P4, P5)

