nc: 80 # number of classes
scales: # model compound scaling constants, i.e. 'model=yolov13n.yaml' will call yolov13.yaml with scale 'n'
  # [depth, width, max_channels]
  n: [0.50, 0.25, 1024]   # Nano
  s: [0.50, 0.50, 1024]   # Small
  l: [1.00, 1.00, 512]    # Large
  x: [1.00, 1.50, 512]    # Extra Large

ch: 4
backbone:
  # [from, repeats, module, args]
  - [-1, 1, Silence, []]  # 0-P1/2
  - [0, 1, SilenceChannel, [0,4]]  # 1-P1/2
  - [-1, 1, Conv,  [64, 3, 2]] # 2-P1/2
  - [-1, 1, Conv,  [128, 3, 2, 1, 2]] # 3-P2/4
  - [-1, 2, DSC3k2,  [256, False, 0.25]]
  - [-1, 1, Conv,  [256, 3, 2, 1, 4]] # 5-P3/8
  - [-1, 2, DSC3k2,  [512, False, 0.25]]
  - [-1, 1, DSConv,  [512, 3, 2]] # 7-P4/16
  - [-1, 4, A2C2f, [512, True, 4]]
  - [-1, 1, DSConv,  [1024, 3, 2]] # 9-P5/32
  - [-1, 4, A2C2f, [1024, True, 1]] # 10

head:
  - [[6, 8, 10], 2, HyperACE, [512, 8, True, True, 0.5, 1, "both"]] # P4/16
  - [-1, 1, nn.Upsample, [None, 2, "nearest"]] # P5/32
  - [ 11, 1, DownsampleConv, []] # P3/8
  - [[8, 11], 1, FullPAD_Tunnel, []]  # 14
  - [[6, 12], 1, FullPAD_Tunnel, []]  # 15
  - [[10, 13], 1, FullPAD_Tunnel, []] # 16
  
  - [-1, 1, nn.Upsample, [None, 2, "nearest"]]
  - [[-1, 14], 1, Concat, [1]] # cat backbone P4
  - [-1, 2, DSC3k2, [512, True]] # 19
  - [[-1, 11], 1, FullPAD_Tunnel, []]  #20

  - [19, 1, nn.Upsample, [None, 2, "nearest"]]
  - [[-1, 15], 1, Concat, [1]] # cat backbone P3
  - [-1, 2, DSC3k2, [256, True]] # 23
  - [12, 1, Conv, [256, 1, 1]]
  - [[23, 24], 1, FullPAD_Tunnel, []]  #25
  
  - [-1, 1, Conv, [256, 3, 2]]
  - [[-1, 20], 1, Concat, [1]] # cat head P4
  - [-1, 2, DSC3k2, [512, True]] # 28
  - [[-1, 11], 1, FullPAD_Tunnel, []]

  - [28, 1, Conv, [512, 3, 2]]
  - [[-1, 16], 1, Concat, [1]] # cat head P5
  - [-1, 2, DSC3k2, [1024,True]] # 32 (P5/32-large)
  - [[-1, 13], 1, FullPAD_Tunnel, []]
  
  - [[25, 29, 33], 1, Detect, [nc]] # Detect(P3, P4, P5)
