# parameters
nc: 80  # number of classes
depth_multiple: 1.0  # model depth multiple
width_multiple: 1.0  # layer channel multiple

# anchors
anchors:
  - [10,13, 16,30, 33,23]  # P3/8
  - [30,61, 62,45, 59,119]  # P4/16
  - [116,90, 156,198, 373,326]  # P5/32

ch: 4

# CSPDarknet53-SPP backbone
backbone:
  # [from, number, module, args]

  [
   [ -1, 1, Silence, [ ] ] , # 0-P1/2
   # visible
   [ 0, 1, SilenceChannel, [ 0,3 ] ] , # 1-P1/2
   [-1, 1, Conv, [32, 3, 1]],  # 2
   [-1, 1, Conv, [64, 3, 2]],  # 3-P1/2
   [-1, 1, BottleneckCSP, [64]],
   [-1, 1, Conv, [64, 1, 1]],
   [-1, 1, Conv, [128, 3, 2]],  # 6-P2/4
   [-1, 2, BottleneckCSP, [128]],
   [-1, 1, Conv, [128, 1, 1]],
   [-1, 1, Conv, [256, 3, 2]],  # 9-P3/8
   [-1, 8, BottleneckCSP, [256]],
   [-1, 1, Conv, [256, 1, 1]], # 11


    # infrared
   [ 0, 1, SilenceChannel, [ 3,4 ] ] , # 12-P1/2
   [ -1, 1, Conv, [ 32, 3, 1 ] ],  # 13
   [ -1, 1, Conv, [ 64, 3, 2 ] ],  # 14-P1/2
   [ -1, 1, BottleneckCSP, [ 64 ] ],
   [ -1, 1, Conv, [ 64, 1, 1 ] ],
   [ -1, 1, Conv, [ 128, 3, 2 ] ],  # 17-P2/4
   [ -1, 2, BottleneckCSP, [ 128 ] ],
   [ -1, 1, Conv, [ 128, 1, 1 ] ],
   [ -1, 1, Conv, [ 256, 3, 2 ] ],  # 20-P3/8
   [ -1, 8, BottleneckCSP, [ 256 ] ],
   [ -1, 1, Conv, [ 256, 1, 1 ] ], # 22

   [ [ 11, 22 ], 1, Concat, [ 1 ] ], # cat backbone P3   23

   [-1, 1, Conv, [512, 3, 2]],  # 24-P4/16
   [-1, 8, BottleneckCSP, [512]],
   [-1, 1, Conv, [512, 1, 1]],  #  26
   [-1, 1, Conv, [1024, 3, 2]],  # 27-P5/32
   [-1, 4, BottleneckCSP, [1024]],
   [-1, 1, Conv, [1024, 1, 1]],  # 29
   [ -1, 1, Conv, [ 512, 1, 1 ] ],
   [ -1, 1, Conv, [ 1024, 3, 1 ] ],
   [ -1, 1, Conv, [ 512, 1, 1 ] ], # 32

   [ -1, 1, SPP, [ 1024, [ 5, 9, 13 ] ] ],  # 33
  ]

# YOLOv5 head
head:
  [
   [-1, 1, Conv, [512, 1, 1]],
   [-1, 1, Conv, [1024, 3, 1]],
   [-1, 1, Conv, [512, 1, 1]],  # 36

   [-1, 1, Conv, [512, 1, 1]],  # 37
   [-1, 1, nn.Upsample, [None, 2, "nearest"]],
   [[-1, 26], 1, Concat, [1]],  # concat backbone P4
   [-1, 3, BottleneckCSP, [512, False]],  # 40

   [-1, 1, Conv, [256, 1, 1]],  # 41
   [-1, 1, nn.Upsample, [None, 2, "nearest"]],
   [[-1, 23], 1, Concat, [1]],  # concat backbone P3
   [-1, 3, BottleneckCSP, [256, False]],  # 44

   [-1, 1, Conv, [256, 3, 2]],
   [[-1, 41], 1, Concat, [1]],  # concat head P4
   [-1, 3, BottleneckCSP, [512, False]],  # 47

   [-1, 1, Conv, [512, 3, 2]],
   [[-1, 37], 1, Concat, [1]],  # concat head P5
   [-1, 3, BottleneckCSP, [1024, False]],  # 50

   [[44, 47, 50], 1, Detect, [nc]],  # Detect(P3, P4, P5)
  ]