# Ultralytics YOLO 🚀, AGPL-3.0 license
# Hyper-YOLO object detection model with N3-N5 outputs. 
# hyper-yolo 系列的原始文件来自于魔鬼面具的YOLOv11项目
# Parameters
nc: 80  # number of classes
scales: # model compound scaling constants, i.e. 'model=hyper-yolon.yaml' will call hyper-yolo.yaml with scale 'n'
  # [depth, width, max_channels, threshold]
  n: [0.33, 0.25, 1024, 6]
  s: [0.33, 0.50, 1024, 8]
  m: [0.67, 0.75, 768, 10]
  l: [1.00, 1.00, 512, 10]
  x: [1.00, 1.25, 512, 12]

ch: 4
# Hyper-YOLO backbone
backbone:
  - [-1, 1, Silence, []]  # 0-P1/2

  # visible
  - [0, 1, SilenceChannel, [0,3]]  # 1-P1/2
  - [-1, 1, Conv, [64, 3, 2]]  # 2-B1/2
  - [-1, 1, Conv, [128, 3, 2]]  # 3
  - [-1, 3, MANet, [128, True, 2, 3]] # 4-B2/4
  - [-1, 1, Conv, [256, 3, 2]]  # 5
  - [-1, 6, MANet, [256, True, 2, 5]] # 6-B3/8

  # infrared
  - [0, 1, SilenceChannel, [3,4]]  # 7-P1/2
  - [-1, 1, Conv, [64, 3, 2]]  # 8-B1/2
  - [-1, 1, Conv, [128, 3, 2]]  # 9
  - [-1, 3, MANet, [128, True, 2, 3]] # 10-B2/4
  - [-1, 1, Conv, [256, 3, 2]]  # 11
  - [-1, 6, MANet, [256, True, 2, 5]] # 12-B3/8


  - [[6, 12], 1, Concat, [1]]  # cat backbone B3   13

  - [-1, 1, Conv, [512, 3, 2]]  # 14
  - [-1, 6, MANet, [512, True, 2, 5]] # 15-B4/16
  - [-1, 1, Conv, [1024, 3, 2]]  # 16-P5/32
  - [-1, 3, MANet, [1024, True, 2, 3]] # 17
  - [-1, 1, SPPF, [1024, 5]]  # 18-B5/32

# Hyper-YOLO head
head:
  # Semantic Collecting visible
  - [2, 1, nn.AvgPool2d, [8, 8, 0]] # 19
  - [4, 1, nn.AvgPool2d, [4, 4, 0]] # 20
  - [6, 1, nn.AvgPool2d, [2, 2, 0]] # 21

  # Semantic Collecting infrared
  - [8, 1, nn.AvgPool2d, [8, 8, 0]] # 22
  - [10, 1, nn.AvgPool2d, [4, 4, 0]] # 23
  - [12, 1, nn.AvgPool2d, [2, 2, 0]] # 24

  - [18, 1, nn.Upsample, [None, 2, 'nearest']] # 25
  - [[19,20,21,22,23,24,25], 1, Concat, [1]]  # cat 26

  # Hypergraph Computation
  - [-1, 1, Conv, [512, 1, 1]] # 27
  - [-1, 1, HyperComputeModule, [512]] # 28
  - [-1, 3, MANet, [512, True, 2, 3]] # 29
#
  # Semantic Collecting
  - [-1, 1, nn.AvgPool2d, [2, 2, 0]] # 30
  - [[-1,18], 1, Concat, [1]]  # cat 31
  - [-1, 1, Conv, [1024, 1, 1]] # 32 P5
#
  - [[29, 15], 1, Concat, [1]]  # cat 33
  - [-1, 3, MANet, [512, False, 2, 3]]  # 34 P4

  - [29, 1, nn.Upsample, [None, 2, 'nearest']] # 35
  - [[-1, 13], 1, Concat, [1]]  # cat 36
  - [-1, 3, MANet, [256, False, 2, 3]]  # 37 P3/N3
#
  - [-1, 1, Conv, [256, 3, 2]] # 38
  - [[-1, 34], 1, Concat, [1]]  # 39 cat
  - [-1, 3, MANet, [512, False, 2, 3]]  # 40 N4
#
  - [-1, 1, Conv, [512, 3, 2]] # 41
  - [[-1, 32], 1, Concat, [1]]  # 42 cat
  - [-1, 3, C2f, [1024, False]]  # 43 N5
  - [[37, 40, 43], 1, Detect, [nc]]  # Detect(N3, N4, N5)
#  - [[10], 1, Detect, [nc]]  # Detect(N3, N4, N5)