# Ultralytics 🚀 AGPL-3.0 License - https://ultralytics.com/license

# Ultralytics YOLOv5 object detection model with P3/8 - P5/32 outputs
# Model docs: https://docs.ultralytics.com/models/yolov5
# Task docs: https://docs.ultralytics.com/tasks/detect

# Parameters
nc: 80 # number of classes
scales: # model compound scaling constants, i.e. 'model=yolov5n.yaml' will call yolov5.yaml with scale 'n'
  # [depth, width, max_channels]
  n: [0.33, 0.25, 1024]
  s: [0.33, 0.50, 1024]
  m: [0.67, 0.75, 1024]
  l: [1.00, 1.00, 1024]
  x: [1.33, 1.25, 1024]

ch: 4
# YOLOv5 v6.0 backbone
backbone:
  # [from, number, module, args]
  - [ -1, 1, Silence, [ ] ]  # 0-P1/2
  - [ 0, 1, SilenceChannel, [  0,3  ] ]  # 1-P1/2
  - [-1, 1, Conv, [64, 6, 2, 2]] # 2-P1/2
  - [-1, 1, Conv, [128, 3, 2]] # 3-P2/4
  - [-1, 3, C3, [128]]
  - [-1, 1, Conv, [256, 3, 2]] # 5-P3/8
  - [-1, 6, C3, [256]]
  - [-1, 1, Conv, [512, 3, 2]] # 7-P4/16
  - [-1, 9, C3, [512]]
  - [-1, 1, Conv, [1024, 3, 2]] # 9-P5/32
  - [-1, 3, C3, [1024]]  #10
  - [-1, 1, SPPF, [1024, 5]] # 11

  - [ 0, 1, SilenceChannel, [ 3,4 ] ]  # 12-P1/2
  - [-1, 1, Conv, [64, 6, 2, 2]] # 13-P1/2
  - [-1, 1, Conv, [128, 3, 2]] # 14-P2/4
  - [-1, 3, C3, [128]]
  - [-1, 1, Conv, [256, 3, 2]] # 16-P3/8
  - [-1, 6, C3, [256]]
  - [-1, 1, Conv, [512, 3, 2]] # 18-P4/16
  - [-1, 9, C3, [512]]
  - [-1, 1, Conv, [1024, 3, 2]] # 20-P5/32
  - [-1, 3, C3, [1024]]
  - [-1, 1, SPPF, [1024, 5]] # 22

# YOLOv5 v6.0 head
head:
  - [11, 1, Conv, [512, 1, 1]]
  - [-1, 1, nn.Upsample, [None, 2, "nearest"]]
  - [[-1, 8], 1, Concat, [1]] # cat backbone P4
  - [-1, 3, C3, [512, False]] # 26

  - [-1, 1, Conv, [256, 1, 1]]
  - [-1, 1, nn.Upsample, [None, 2, "nearest"]]
  - [[-1, 6], 1, Concat, [1]] # cat backbone P3
  - [-1, 3, C3, [256, False]] # 30 (P3/8-small)

  - [22, 1, Conv, [512, 1, 1]]
  - [-1, 1, nn.Upsample, [None, 2, "nearest"]]
  - [[-1, 19], 1, Concat, [1]] # cat backbone P4
  - [-1, 3, C3, [512, False]] # 34

  - [-1, 1, Conv, [256, 1, 1]]
  - [-1, 1, nn.Upsample, [None, 2, "nearest"]]
  - [[-1, 17], 1, Concat, [1]] # cat backbone P3
  - [-1, 3, C3, [256, False]] # 38 (P3/8-small)

  - [ [ 11, 22 ], 1, Concat, [ 1 ] ]  # cat head P5  39
  - [ [ 26, 34 ], 1, Concat, [ 1 ] ]  # cat head P5  40
  - [ [ 30, 38 ], 1, Concat, [ 1 ] ]  # cat head P5  41


  - [41, 1, Conv, [256, 3, 2]]
  - [[-1, 40], 1, Concat, [1]] # cat head P4
  - [-1, 3, C3, [512, False]] # 44 (P4/16-medium)

  - [-1, 1, Conv, [512, 3, 2]]
  - [[-1, 39], 1, Concat, [1]] # cat head P5
  - [-1, 3, C3, [1024, False]] # 47 (P5/32-large)

  - [[41, 44, 47], 1, Detect, [nc]] # Detect(P3, P4, P5)
